…
90%|█████████ | 389593/430889 [00:05<00:00, 76215.44it/s] 92%|█████████▏| 397262/430889 [00:05<00:00, 75043.15it/s] 94%|█████████▍| 404802/430889 [00:05<00:00, 74543.06it/s] 96%|█████████▌| 412322/430889 [00:05<00:00, 74734.44it/s] 97%|█████████▋| 419814/430889 [00:06<00:00, 73924.87it/s] 99%|█████████▉| 427220/430889 [00:06<00:00, 35685.31it/s]100%|██████████| 430889/430889 [00:06<00:00, 65895.71it/s]
Vocab size: 5585
  0%|          | 0/2851 [00:00<?, ?it/s]100%|██████████| 2851/2851 [00:00<00:00, 51541.38it/s]
Time usage: 0:00:09
<bound method Module.parameters of Model(
  (embedding): Embedding(5585, 300, padding_idx=5584)
  (encoder): Encoder(
    (attention): Multi_Head_Attention(
      (fc_Q): Linear(in_features=300, out_features=300, bias=True)
      (fc_K): Linear(in_features=300, out_features=300, bias=True)
      (fc_V): Linear(in_features=300, out_features=300, bias=True)
      (attention): Scaled_Dot_Product_Attention()
      (fc): Linear(in_features=300, out_features=300, bias=True)
      (dropout): Dropout(p=0.5, inplace=False)
      (layer_norm): LayerNorm((300,), eps=1e-05, elementwise_affine=True)
    )
    (feed_forward): Position_wise_Feed_Forward(
      (fc1): Linear(in_features=300, out_features=1024, bias=True)
      (fc2): Linear(in_features=1024, out_features=300, bias=True)
      (dropout): Dropout(p=0.5, inplace=False)
      (layer_norm): LayerNorm((300,), eps=1e-05, elementwise_affine=True)
    )
  )
  (encoders): ModuleList(
    (0): Encoder(
      (attention): Multi_Head_Attention(
        (fc_Q): Linear(in_features=300, out_features=300, bias=True)
        (fc_K): Linear(in_features=300, out_features=300, bias=True)
        (fc_V): Linear(in_features=300, out_features=300, bias=True)
        (attention): Scaled_Dot_Product_Attention()
        (fc): Linear(in_features=300, out_features=300, bias=True)
        (dropout): Dropout(p=0.5, inplace=False)
        (layer_norm): LayerNorm((300,), eps=1e-05, elementwise_affine=True)
      )
      (feed_forward): Position_wise_Feed_Forward(
        (fc1): Linear(in_features=300, out_features=1024, bias=True)
        (fc2): Linear(in_features=1024, out_features=300, bias=True)
        (dropout): Dropout(p=0.5, inplace=False)
        (layer_norm): LayerNorm((300,), eps=1e-05, elementwise_affine=True)
      )
    )
    (1): Encoder(
      (attention): Multi_Head_Attention(
        (fc_Q): Linear(in_features=300, out_features=300, bias=True)
        (fc_K): Linear(in_features=300, out_features=300, bias=True)
        (fc_V): Linear(in_features=300, out_features=300, bias=True)
        (attention): Scaled_Dot_Product_Attention()
        (fc): Linear(in_features=300, out_features=300, bias=True)
        (dropout): Dropout(p=0.5, inplace=False)
        (layer_norm): LayerNorm((300,), eps=1e-05, elementwise_affine=True)
      )
      (feed_forward): Position_wise_Feed_Forward(
        (fc1): Linear(in_features=300, out_features=1024, bias=True)
        (fc2): Linear(in_features=1024, out_features=300, bias=True)
        (dropout): Dropout(p=0.5, inplace=False)
        (layer_norm): LayerNorm((300,), eps=1e-05, elementwise_affine=True)
      )
    )
  )
  (fc_recover): Linear(in_features=300, out_features=5585, bias=True)
  (fc_classify): Linear(in_features=300, out_features=2, bias=True)
)>
Epoch [1/200]
RecvIter:  0 , Train Loss:  9.0235 , Train Acc:  0.0 , Val Loss:  8.5876 , Val Acc:  0.015 , Time:  0:00:07 *
ClsfIter:  0 , Train Loss:  0.6164 , Train Acc:  0.592 , Val Loss:  0.756 , Val Acc:  0.42 , Time:  0:00:07 *
RecvIter:  100 , Train Loss:  3.9784 , Train Acc:  0.0 , Val Loss:  6.5303 , Val Acc:  0.023 , Time:  0:00:20 *
ClsfIter:  100 , Train Loss:  0.3592 , Train Acc:  0.666 , Val Loss:  0.5762 , Val Acc:  0.664 , Time:  0:00:20 *
…
